Day04/pong_model.tflite (tflite, 3832 bytes, 4 tensors)

arith.constant f4 [3, 64]
0	0xbdb29898	-0.08720511
1	0xbeed490c	-0.46344793
2	0x3dee8bf2	0.11647786
3	0xc0045f2b	-2.0683086
4	0x3d843905	0.06456188
5	0xbee564d9	-0.44803503
6	0xbddbc27c	-0.10730454
7	0xbcfc7948	-0.03081955
8	0x3e5590a6	0.2085596
9	0xbd079084	-0.033096805
10	0x3c052b8b	0.008128057
11	0xbe5f8937	-0.21829687
12	0x3d95b67a	0.07310195
13	0x3e88cf27	0.26720545
14	0x3f58ba8b	0.8465964
15	0xbfe5187c	-1.7898097
16	0x3eabb762	0.33538347
17	0xbd18a395	-0.03726538
18	0xbdb2b8a2	-0.08726622
19	0xbf54e206	-0.83157384
20	0xbe5cf2b6	-0.21576962
21	0xbed1dbbe	-0.40987962
22	0x3dc94446	0.09827475
23	0xbf2606fa	-0.64854395
24	0x3ea96ed8	0.3309238
25	0x3d8350d6	0.064119026
26	0xbebd0520	-0.36917973
27	0x3ce381ba	0.02777182
28	0x3bebbd20	0.0071941763
29	0xbdd6f3ac	-0.104956955
30	0x3fa3f3e8	1.2808809
31	0x3d35e487	0.044407394
32	0xbe897229	-0.2684491
33	0x3e6327aa	0.221831
34	0xbf14d7a1	-0.58141524
35	0x3f151c15	0.58245975
36	0xbe9f4661	-0.31108382
37	0x3ef83652	0.48478943
38	0x3ecf8520	0.40531254
39	0xbdd9a36e	-0.10626875
40	0xc01cd6dd	-2.4506142
41	0x3fd8b801	1.6931154
42	0xbdb36a3b	-0.08760496
43	0x3d439b90	0.047755778
44	0x3df0f0dc	0.1176469
45	0x3de2106a	0.11038287
46	0xbfa9a6e4	-1.3254056
47	0xbe1a587f	-0.15072821
48	0x3faa870b	1.3322462
49	0x3f7224dc	0.9458749
50	0x3dbb8bdc	0.091575354
51	0xbd8a9855	-0.06767336
52	0xbeeb4526	-0.45951194
53	0xbd0aff48	-0.03393486
54	0xbbe32d60	-0.0069328994
55	0x3e4c41e2	0.19947007
56	0xbd492f4c	-0.04911737
57	0xbb0fdac0	-0.0021950454
58	0xbfa85e57	-1.315379
59	0x3e878345	0.26467338
60	0x3e7526bb	0.23940556
61	0xbdfa3f4f	-0.122191064
62	0x3c42ba39	0.011885219
63	0x3ec0ef8e	0.37682766
64	0xbd8b159c	-0.06791231
65	0xbed4b442	-0.41543776
66	0x3dcac74a	0.099012926
67	0xbfe56ff2	-1.7924788
68	0x3d3f6a8a	0.046732463
69	0xbf10c05a	-0.56543505
70	0x3d545104	0.051835075
71	0xbcc61c38	-0.024183378
72	0x3e26ba9b	0.16282122
73	0xbc5a1a70	-0.013311967
74	0xba87c0ac	-0.0010357103
75	0xbe99881a	-0.2998665
76	0x3d3a08cc	0.045418546
77	0x3ef5c009	0.47998074
78	0x3fa8b476	1.3180072
79	0xc005ed7c	-2.09262
80	0x3eafe914	0.34357512
81	0xbc0748a0	-0.008257061
82	0xbcca0b10	-0.024663478
83	0xbf9910eb	-1.1958288
84	0xbebe184d	-0.37127915
85	0xbe577b1f	-0.2104306
86	0x3dadfffa	0.08496089
87	0xbf2341df	-0.63772386
88	0x3e90d217	0.28285286
89	0x3dd0a35c	0.10187408
90	0xbf1bd59c	-0.6087282
91	0x3cc7a33c	0.024369828
92	0x3d24c50c	0.04022698
93	0xbe23fc71	-0.16014268
94	0x3fb27e05	1.3944708
95	0x3da29302	0.07938196
96	0xbf30f68d	-0.69126207
97	0x3e9d9fe2	0.30786043
98	0xbf5e12b9	-0.8674732
99	0x3f10f17e	0.5661849
100	0xbf069613	-0.52572745
101	0x3f180a51	0.5939074
102	0x3f0352ea	0.5129839
103	0x3cb06760	0.021533668
104	0xc037685a	-2.865744
105	0x3fb991d6	1.4497631
106	0x3d41b576	0.047292195
107	0xbc9cce38	-0.019141302
108	0x3d826214	0.06366363
109	0x3e233617	0.15938602
110	0xbfb92837	-1.4465398
111	0xbece5211	-0.40296987
112	0x3fa47e1c	1.2850986
113	0x3fafde13	1.3739647
114	0x3e68873c	0.22707838
115	0xbdeb4bdb	-0.11489078
116	0xbea037a9	-0.31292465
117	0x3bdc02a0	0.00671418
118	0x3da2a126	0.07940893
119	0x3e468af8	0.1938895
120	0xbcf5cbc1	-0.030004384
121	0xbdd3f8b6	-0.10350172
122	0xbffcf8e3	-1.9763454
123	0x3e833723	0.25628003
124	0x3e8880dd	0.26660815
125	0xbd1462d2	-0.036227055
126	0x3d7a9dc4	0.061185613
127	0x3e8f53b9	0.27993563
128	0xbd166478	-0.03671691
129	0xbf39ff33	-0.7265503
130	0x3d9acbe6	0.07558422
131	0xbf9bb70d	-1.2165238
132	0xbdd68e93	-0.104764126
133	0xbf05643c	-0.5210607
134	0x3cf7bfe8	0.030242875
135	0x3c094890	0.008379117
136	0x3e083e87	0.13305102
137	0xbd52c610	-0.05145842
138	0x3b362f26	0.0027799099
139	0xbee3628e	-0.4441113
140	0xbdad063a	-0.08448453
141	0x3e116c73	0.14201526
142	0x3f3ec0fc	0.7451322
143	0xbfe2118d	-1.7661606
144	0x3ee577c2	0.4481793
145	0xbd02f7dc	-0.03197466
146	0x3d1c5670	0.03816837
147	0xbed6d1f2	-0.4195705
148	0xbec2097b	-0.37897858
149	0xbeabc982	-0.33552176
150	0x3d931811	0.07182325
151	0xbeec32e8	-0.46132588
152	0x3e9b31d1	0.30311444
153	0x3d98fc58	0.07470006
154	0xbec9b652	-0.39396912
155	0xbca1c70f	-0.019748239
156	0x3d9eb75c	0.07749817
157	0xbd1adede	-0.0378102
158	0x3febf3d6	1.8433788
159	0x3d31965c	0.043356284
160	0xbf6d45a6	-0.926844
161	0x3e57e35e	0.21082827
162	0xbf405c5c	-0.7514093
163	0x3ec971c8	0.3934462
164	0xbf0534f0	-0.520339
165	0x3f9b27de	1.2121542
166	0x3ea77735	0.32708135
167	0xbda38d0e	-0.079858884
168	0xc082bb77	-4.085384
169	0x3ebac19d	0.3647584
170	0x3dbf2f43	0.09335186
171	0x3d2ecb24	0.0426742
172	0x3cee9cd0	0.029127508
173	0xbe4b8e14	-0.19878417
174	0xbf821b4d	-1.0164582
175	0xbeabcb26	-0.33553427
176	0x3f59dee9	0.8510576
177	0x3f9998d1	1.1999761
178	0x3e07d418	0.13264501
179	0x3ddddc42	0.108330265
180	0x3e73196d	0.23740168
181	0x3d6c12ec	0.057635233
182	0x3dc9c6c0	0.09852362
183	0x3e8e6307	0.27809927
184	0xbd8082b1	-0.062749274
185	0xbda0f0aa	-0.07858403
186	0xc05f4a89	-3.4889243
187	0x3e0d1d9c	0.13780826
188	0x3d0037f5	0.031303365
189	0x3db3805f	0.08764719
190	0xbc42a71b	-0.011880661
191	0x3e5791d5	0.21051724

arith.constant1 f4 [3]
0	0x3e4b9b5f	0.19883488
1	0x3e51fbc5	0.20506199
2	0x3e5f8d17	0.21831165

sequential_3_1/dense_8_1/BiasAdd/ReadVariableOp f4 [64]
0	0xbd6862c1	-0.056734804
1	0xbf1268e8	-0.57191324
2	0xbe35f0b9	-0.1776761
3	0xbe6b0bdc	-0.22953743
4	0x3e92eca6	0.28696173
5	0x3ebbbc29	0.36666992
6	0xbec59f5e	-0.3859815
7	0xbed5ff6c	-0.41796434
8	0x3da4997c	0.08037087
9	0xbe8ce614	-0.27519286
10	0xbd3b6f41	-0.045760397
11	0xbe4469d4	-0.19180995
12	0xbe81f7e3	-0.25384435
13	0x3eb83a0e	0.35981792
14	0x3eced3bb	0.40395913
15	0xbe8ed4b0	-0.27896643
16	0xbf0ff884	-0.5623858
17	0xbddc1e19	-0.10747928
18	0xbed56689	-0.4167979
19	0x3ef632ff	0.48085782
20	0x3e005735	0.12533267
21	0xbb89d992	-0.0042068446
22	0xbebf292a	-0.37336093
23	0x3e8642ba	0.26222783
24	0x3e331c89	0.17491354
25	0xbe26bdd7	-0.16283356
26	0x3e130ca4	0.14360291
27	0xbdfa7eef	-0.12231242
28	0x3ecb9413	0.3976141
29	0xbee7815d	-0.45215884
30	0xbe553dc6	-0.20824346
31	0xbe7e02eb	-0.248058
32	0xbe8dc565	-0.27689663
33	0x3d858dd9	0.06521196
34	0x3d8054ca	0.06266172
35	0x3d2181cf	0.039430436
36	0x3d06d456	0.032917343
37	0x3d8b4594	0.0680038
38	0xbd207422	-0.039173253
39	0xbeae39d9	-0.3402851
40	0xbf15f9b5	-0.5858415
41	0xbd867bee	-0.065666065
42	0x3e9bcaae	0.3042807
43	0xbe570ef8	-0.21001804
44	0xbecc0d94	-0.3985411
45	0xbeb48a53	-0.35261783
46	0x3e130e1f	0.14360856
47	0x3dab7aa4	0.08373001
48	0x3db50ae6	0.08839969
49	0xbdf2db3e	-0.118582234
50	0x3de0abc6	0.10970263
51	0xbe968506	-0.29398364
52	0x3e117d79	0.1420802
53	0xbee0bbd7	-0.4389331
54	0xbdfef510	-0.12449086
55	0x3e9ed327	0.3102047
56	0x3d7127fd	0.058876026
57	0xbebcd952	-0.36884552
58	0xbf07ce53	-0.530492
59	0x3e5ecc07	0.21757518
60	0x3e960168	0.29297948
61	0x3e4e5a43	0.2015162
62	0x3d49f55c	0.04930626
63	0x3e050e23	0.12993674

sequential_3_1/dense_8_1/MatMul f4 [64, 5]
0	0xbedbe699	-0.4294937
1	0x3c0aeb8b	0.008479009
2	0xbe8839df	-0.26606652
3	0xbeaaf950	-0.33393335
4	0xbcd66381	-0.026170494
5	0x3e5ef45b	0.21772902
6	0x3e156f2a	0.14593187
7	0x3ed7c988	0.42145944
8	0x3ebd7cef	0.3700938
9	0x3f9b3f93	1.2128776
10	0xbe0596b4	-0.1304577
11	0x3e081149	0.13287844
12	0xbe188a9b	-0.14896624
13	0xbeca9a0f	-0.39570662
14	0xbe4925e8	-0.19643366
15	0x3f010974	0.5040505
16	0x3ef48343	0.47756395
17	0xbf9877b1	-1.1911527
18	0xbfe86101	-1.8154603
19	0x4006fcf9	2.1091902
20	0x3dc6eb2d	0.09712825
21	0xbe623649	-0.2209102
22	0xbdb55c0d	-0.08855448
23	0xbf83d9b1	-1.0300809
24	0x3d87e92d	0.066362716
25	0xbf9110d7	-1.1333264
26	0xbdc8d19d	-0.098056056
27	0xbe61c666	-0.22048339
28	0xc01700ad	-2.3594162
29	0xbf84ae89	-1.0365764
30	0x3d25feda	0.04052625
31	0xbe29d59a	-0.16585389
32	0x3e3d822d	0.1850669
33	0x3ea2a9a5	0.31770054
34	0xbeafc8d7	-0.34332916
35	0xbdbf24f0	-0.09333217
36	0xbe68a014	-0.22717315
37	0x3d90d0c0	0.07071066
38	0x3e48b4a3	0.19600157
39	0xbe797038	-0.24359214
40	0xbf11d0a6	-0.56959
41	0x3e998a96	0.29988545
42	0xbe8992b6	-0.26869744
43	0x3e1e4c1c	0.15458721
44	0x3ee54b34	0.44783938
45	0xbe9aaded	-0.3021082
46	0x3e98b089	0.29822186
47	0xbe2e869d	-0.17043538
48	0x3edb2013	0.42797908
49	0xbe8a2519	-0.26981428
50	0xbe212b66	-0.15739211
51	0x3d08e985	0.033425827
52	0xbc086f3f	-0.008327304
53	0x3f15df14	0.58543515
54	0x3ea5db6b	0.32393965
55	0xbedbff79	-0.42968348
56	0x3e1ec000	0.1550293
57	0x3ed46dac	0.41489923
58	0x3e4d0beb	0.20024078
59	0x3f12b501	0.5730744
60	0xbe2c05dd	-0.16799112
61	0xbd7279c0	-0.05919814
62	0x3e4b4944	0.19852167
63	0x3e74fca2	0.23924497
64	0x3d14e615	0.036352236
65	0xbd9d7f02	-0.076902404
66	0xbee12c74	-0.43979228
67	0x3dde5100	0.10855293
68	0x3fbe8410	1.4884052
69	0xbf6569d9	-0.89614636
70	0xbf1fbc83	-0.6239702
71	0xbf0948e2	-0.53626835
72	0x3f2aa789	0.6666189
73	0x40038e0f	2.0555456
74	0xc08e3015	-4.4433694
75	0x3f3daad0	0.74088764
76	0x3e4fa17d	0.20276447
77	0xbf31e3fb	-0.69488496
78	0xbcb57720	-0.02215153
79	0xbe55c62b	-0.20876376
80	0x3f0f2af6	0.5592493
81	0xbe85fd53	-0.26169834
82	0x3eb1694f	0.34650657
83	0x3f8a8ba9	1.0823871
84	0xc02cebab	-2.701884
85	0xbd580b72	-0.05274529
86	0xbda1ef11	-0.079069264
87	0x3dcaa544	0.09894803
88	0x3dcd8f39	0.10037083
89	0xbe16191d	-0.14658017
90	0xbe139905	-0.14413841
91	0x3eada79c	0.33916938
92	0xbe934a9b	-0.28767857
93	0xbd501769	-0.050803576
94	0xbd6cb03e	-0.057785265
95	0xbef0b369	-0.4701188
96	0xbef00c60	-0.4688444
97	0x3ef14d75	0.47129408
98	0x3f51aaa7	0.8190102
99	0xbfde469d	-1.73653
100	0x3e9e6b4f	0.30941245
101	0xbef17284	-0.4715768
102	0x3ebd32c8	0.36952806
103	0x3f5aae73	0.8542244
104	0xbf99815d	-1.1992604
105	0xbe36ed7d	-0.17864032
106	0x3e8dd639	0.277025
107	0xbf408fc4	-0.7521937
108	0x3ec080c3	0.37598237
109	0x4003aba8	2.057352
110	0xbce2c19f	-0.027680216
111	0xbdea9f75	-0.11456195
112	0x3ea3ff28	0.32030606
113	0xbe93d9db	-0.28877148
114	0x3edef975	0.43549696
115	0x3ed1396a	0.40864116
116	0xbe67420c	-0.22583789
117	0xbed10c56	-0.40829724
118	0x3e8793d3	0.26479968
119	0xbfa6e968	-1.303998
120	0x3ebfadea	0.37437373
121	0xbd8e7bf5	-0.06957237
122	0xbebc0a81	-0.36726764
123	0xbe50d898	-0.20395124
124	0x3f4c353d	0.79768735
125	0x3cb6d72a	0.022319395
126	0xbe9d1df7	-0.30686924
127	0xbeb59c77	-0.35470936
128	0x3e91d228	0.2848065
129	0xbe8b5ff3	-0.2722164
130	0xbf0345e3	-0.51278514
131	0xbe1bbdc4	-0.15209109
132	0x3effdfc7	0.49975416
133	0xbf32e6ff	-0.6988372
134	0x3f367f49	0.7128797
135	0xbe508fb5	-0.2036732
136	0x3dd9bcc5	0.10631708
137	0xbdbd6041	-0.092468746
138	0x3e13c11a	0.14429131
139	0x3f439dcd	0.7641266
140	0xbe445dc7	-0.19176398
141	0xbe59fe9d	-0.21288534
142	0xb8824eb5	-6.2135434e-05
143	0xbf45ce0f	-0.77267545
144	0x3f08c767	0.53429264
145	0x3ead7297	0.33876488
146	0x3d691a89	0.05691007
147	0x3e952da7	0.29136392
148	0x3fc6bd83	1.5526584
149	0x3eb6f60e	0.357346
150	0x3f5223af	0.820857
151	0x3d48f32b	0.049060028
152	0xbf69ca0e	-0.91323936
153	0x3f1616e7	0.58628696
154	0xc04bb440	-3.1828766
155	0x3e6dfed9	0.23241748
156	0xbe0c94ea	-0.13728681
157	0xbe327cbf	-0.174304
158	0x3e88ec8a	0.26742965
159	0x3e1d2f54	0.15350085
160	0x3efe6b0f	0.49691054
161	0x3e897465	0.26846614
162	0xbf43ffbe	-0.76562107
163	0xbef9422a	-0.48683292
164	0x3fa843b7	1.3145665
165	0x3efba37b	0.49148163
166	0xbe412234	-0.18860704
167	0xbe7e49ad	-0.24832793
168	0xbf234c7f	-0.637886
169	0xbdd98315	-0.10620705
170	0xbef07a39	-0.46968248
171	0xbd3507e8	-0.044196993
172	0x3ef65ae1	0.4811621
173	0xbe361542	-0.17781547
174	0xc01b1be0	-2.4235764
175	0xbf69e529	-0.91365296
176	0x3eda189d	0.42596903
177	0x3d30826e	0.043093137
178	0x3e97e960	0.29670238
179	0x40035cf7	2.0525491
180	0xbf032883	-0.5123369
181	0xbb39e50d	-0.0028365285
182	0x3eec9c4b	0.46212992
183	0xbf4e261e	-0.8052691
184	0xbf991edb	-1.1962541
185	0xbd114e61	-0.03547514
186	0x3db83f4a	0.089964464
187	0xbf9eb7f6	-1.239989
188	0xbe847670	-0.2587161
189	0xbe69d15b	-0.22833769
190	0x3f5ec90d	0.8702553
191	0xbe83a91e	-0.25714964
192	0x3de30c1a	0.110862926
193	0xbf4ebeb2	-0.8075973
194	0x3ea9c99a	0.33161622
195	0xbe830016	-0.25586003
196	0x3eb65a71	0.35615876
197	0xbd87eb6d	-0.06636701
198	0xbcd01e02	-0.025404934
199	0x3e9117eb	0.2833856
200	0xbf050741	-0.51964194
201	0x3f13de33	0.57760924
202	0x3eb55f4f	0.35424277
203	0x3e7f0315	0.2490352
204	0x3f6d2beb	0.9264514
205	0x3f2b8f49	0.6701551
206	0xbe39bf3a	-0.18139353
207	0xbf2155ac	-0.6302135
208	0x3f931d43	1.1493305
209	0xc00524f7	-2.0803812
210	0xbe1bc64b	-0.15212362
211	0xbe398511	-0.18117167
212	0x3d03c26e	0.032167844
213	0xbf11c5c6	-0.56942403
214	0xbf123c5e	-0.57123363
215	0xbe8da03c	-0.27661312
216	0xbed4275f	-0.41436288
217	0xbd2e66e6	-0.0425786
218	0xbe969390	-0.29409456
219	0xbe3cbbb6	-0.18430981
220	0xbead4837	-0.33844158
221	0x3eadc208	0.33937097
222	0xbd1c5aca	-0.03817252
223	0x3e02624a	0.12732807
224	0xbebc11a0	-0.36732197
225	0x3d94188a	0.07231243
226	0x3ea8c1a7	0.32960245
227	0xbe0ca89b	-0.13736193
228	0x3ec877cd	0.391539
229	0x3f91963b	1.1373972
230	0x3f67bd0a	0.90522826
231	0xbe0d4986	-0.13797578
232	0xbf4e7ba2	-0.806574
233	0x3f7f2bef	0.9967641
234	0xbf5fb7ed	-0.87390023
235	0xbef27fe9	-0.47363213
236	0xbf1ee636	-0.62070024
237	0x3eda1c79	0.42599848
238	0xbf51e6b2	-0.8199264
239	0xc0a59b2f	-5.1751933
240	0xbf6ba2d9	-0.9204536
241	0x3ec0e438	0.37674117
242	0xbf5c1f28	-0.8598504
243	0xbfa4d2ce	-1.2876832
244	0xbf450071	-0.769538
245	0xbf7f659e	-0.9976443
246	0xbc973cf5	-0.018461684
247	0x3f618cab	0.8810527
248	0xbfff1a3c	-1.9929881
249	0xbfe94053	-1.8222755
250	0x3ea553a0	0.32290363
251	0xbc465603	-0.012105468
252	0xbe7116f8	-0.23543918
253	0xbf7457ba	-0.9544636
254	0xbecb86bd	-0.39751235
255	0x3df8e5bc	0.12153193
